data.pth (torch, 5015 bytes, 6 tensors)

l1.weight f4 [8, 54]
000000 64 f3 72 bd a4 b8 fe 3e dc 14 f7 be b1 b3 27 3d
       -0.059314147 0.49750245 -0.48258102 0.04094285
000010 36 1e 9b 3e 9a c5 0a bf df 03 13 be 78 a4 8e be
       0.30296487 -0.54207766 -0.14356945 -0.27859855
000020 80 62 07 bf 0c 1d a7 be f6 99 e7 3e 19 0e 18 be
       -0.52884674 -0.32639349 0.4523465 -0.14849128
000030 ec cb 4e 3e e2 6f 63 be 57 29 c7 3e 4c 43 30 be
       0.20194978 -0.22210649 0.38898727 -0.17213172
000040 4d 29 6f 3e 30 af 03 bf ad cb c9 3e 22 03 07 3f
       0.23355599 -0.5143919 0.39413205 0.52739155
000050 27 dd 49 3e 23 a4 0c 3f 6d b7 a9 3e 71 3b 86 3e
       0.19713269 0.5493795 0.33147755 0.26217225
000060 94 7c aa bd 50 87 53 3c 32 75 15 3f 05 1f bf 3e
       -0.08324543 0.012910679 0.5838195 0.37328354
000070 1c 34 fe 3e 79 69 c3 3e 55 1e 91 be 7d cf 06 be
       0.4964913 0.38166407 -0.28343454 -0.13165088
000080 04 40 0c be 62 12 19 bf 54 ab 93 3e ff 2a 2a be
       -0.13696295 -0.59793675 0.2884165 -0.16617964
000090 a5 36 10 3f f9 49 27 bf 3f 38 d3 bd d2 b5 5a be
       0.5633338 -0.6534725 -0.103134625 -0.21358421
0000a0 e6 39 b6 be c2 a6 14 3f 5c 44 2e 3c 81 c8 7c 3e
       -0.35591048 0.5806695 0.010636415 0.24685861
0000b0 93 d8 f3 be b6 70 cb 3e 58 c1 c4 3e 89 7e 3a 3e
       -0.4762617 0.3973443 0.3842876 0.18212332
0000c0 5e 25 cb 3e 8c 7c 37 3f 20 f4 41 be b1 46 9b 3e
       0.39676946 0.7167442 -0.18940783 0.3032737
0000d0 1a ea 66 bc 9a f2 a4 3e 90 37 a6 be cb 89 86 be
       -0.0140939 0.3221634 -0.32464266 -0.26277003
0000e0 bf dd 05 3f e5 6e ff 3e 84 f9 0e 3f 78 14 5c 3f
       0.5229148 0.49889293 0.5584948 0.8596873
0000f0 a3 09 a2 3e e5 18 ca 3e e7 5f a1 3e fd 93 fc 3e
       0.31647977 0.39472118 0.3151848 0.49331656
000100 6f 55 18 3f 2a 22 ef 3e 38 45 9d 3c 3f 70 f6 3e
       0.5950536 0.46705753 0.019198045 0.48132512
000110 df 1d 89 be 1a 0d d3 3e f1 7f 14 3f f9 7f 46 3f
       -0.26780602 0.41220933 0.58007723 0.7753902
000120 4e 7b 9f be 6b 3c 4f 3f 92 27 7e be a8 de 4c 3f
       -0.31148762 0.80951566 -0.24819782 0.80027246
000130 63 41 1b 3f 27 10 2f 3f 5b c9 13 3f 17 8d d2 3e
       0.6064665 0.6838402 0.5772912 0.41123268
000140 3e 28 10 bf 62 c3 85 be 32 52 a1 be 28 8f 7b be
       -0.56311405 -0.26125628 -0.31508023 -0.24566329
000150 2c c2 dd 3e 5d 99 f2 3e a0 17 9f bd 71 f5 dd 3e
       0.43312204 0.47382632 -0.07768178 0.4335132
000160 42 dd 26 be 9e c3 fa 3e 3a d4 10 be e6 4c 01 3f
       -0.1629534 0.4897737 -0.14143458 0.5050796
000170 8c d9 aa 3e b4 9f c3 3e b5 11 0d 3f 99 70 ff be
       0.333691 0.3820778 0.55105144 -0.49890593
000180 86 42 c8 3e 39 87 07 be 14 ee 09 3f e6 2f 79 be
       0.39113253 -0.13235177 0.53878903 -0.24334678
000190 71 b4 50 bf e1 29 a5 be c0 a3 51 3e bb 15 26 bf
       -0.8152533 -0.32258514 0.20472622 -0.6487691
0001a0 1e b7 03 3f e2 a2 8d be 7c d5 b9 3e 05 37 68 3e
       0.5145129 -0.27663332 0.36295688 0.22677238
0001b0 51 fb a9 be 53 0f d0 3e 69 66 5e be c8 92 fd 3e
       -0.33199552 0.4063669 -0.21718754 0.49526048
0001c0 c1 19 c0 3e 76 c5 1e bf 4b 71 b4 bd a4 05 99 be
       0.3751965 -0.6202005 -0.088106714 -0.29887116
0001d0 1e b5 ed be 43 e0 2a be f6 15 02 3f ef 5a 19 bd
       -0.46427244 -0.16687112 0.5081476 -0.037440237
0001e0 90 96 38 3d c9 48 88 bc bd b8 93 3e 17 c2 14 be
       0.045065463 -0.01663627 0.28851882 -0.14527164
0001f0 22 af e2 3e 6f d9 1f bf a8 9a 1a 3e 88 18 3a 3f
       0.4427424 -0.6244115 0.15098059 0.7269368
000200 f8 da b8 bd b3 cd 05 3f ad d2 3f 3f fa 56 08 3f
       -0.0902614 0.52267 0.7493084 0.53257716
000210 81 c7 cf bd 07 73 e8 3e 09 cd f7 3c bf a9 1b 3f
       -0.10145474 0.4540026 0.030249136 0.60805887
000220 20 03 f8 bd fe f0 e7 3e 6e 73 b6 bd 7a 24 86 bd
       -0.12109971 0.4530105 -0.08908735 -0.06549926
000230 6c af 97 bd e6 64 e3 be 73 43 0a 3f 9b 2f bf 3c
       -0.07406506 -0.44412917 0.5400917 0.02333813
000240 93 f7 0f be 16 af 99 be b8 d6 83 be 4d cb a7 bd
       -0.14059286 -0.30016392 -0.25749755 -0.081930734
000250 4a 8e 86 be 2a 1e b7 3c 0a b3 3f 3e 84 1c 03 3f
       -0.26280433 0.02235325 0.18720642 0.51215386
000260 c9 35 48 be c1 9d 16 3f b0 d9 1f bf 20 07 4f be
       -0.19551767 0.58834463 -0.6244154 -0.20217562
000270 d3 06 dc 3e 7f ea da bd ed b4 0d be dd 25 26 bd
       0.42973956 -0.10689258 -0.13838549 -0.040563453
000280 a3 f0 bf bd b4 21 09 bc 5e a1 e1 3e e9 98 f6 3e
       -0.0937207 -0.008369852 0.44068426 0.48163536
000290 9e 12 d7 be d2 8e f9 bd 8f 6d 19 be 5c d8 d0 be
       -0.4200639 -0.12185444 -0.149832 -0.4079007
0002a0 a5 16 47 be 90 03 00 bf 13 b4 fc bd 86 28 ee be
       -0.19442232 -0.50005436 -0.12339034 -0.46515292
0002b0 e2 58 5c bd 47 82 bf 3e 24 d9 91 3e a1 44 ff 3e
       -0.053795703 0.3740408 0.28485978 0.49857047
0002c0 c6 33 71 3e bb 95 f1 3e 54 21 73 bd 1a ad d0 be
       0.23554906 0.47184548 -0.059357956 -0.40757066
0002d0 b4 aa ac 3e 29 3d 50 be 24 6a ab 3e 88 cf 7c be
       0.33723986 -0.20335831 0.33479416 -0.24688542
0002e0 87 66 4d be 99 1b d3 3e f0 8c af 3e 19 11 d0 bd
       -0.20058642 0.41231993 0.34287214 -0.10159511
0002f0 4e c1 a3 3e c0 17 02 3f 8c 25 e0 3d 67 c2 bf 3e
       0.31983417 0.5081749 0.109446615 0.37453005
000300 35 63 71 be 0d fc bf 3e 78 8c 82 3d 42 62 c0 be
       -0.23573 0.37496987 0.063744485 -0.37574965
000310 21 32 92 3e d1 fd 9d 3e ec 51 13 3e e2 cc 72 be
       0.2855387 0.3085771 0.1438672 -0.23710969
000320 1e 5d 46 be 7a 4d 84 be 30 f8 88 be ee 9a 64 3e
       -0.19371459 -0.2584036 -0.26751852 0.22324726
000330 f7 65 a5 3e 54 72 bd 3e cf 22 4b 3e ed c6 fd 3e
       0.32304356 0.37001288 0.19837497 0.4956583
000340 8e 0d 1d 3f 60 f6 dd 3e ae 98 fe 3d ac 1c f9 3e
       0.6134881 0.43352032 0.12431465 0.48654687
000350 e9 f6 bc 3e 7e 80 da 3e 01 7f d4 bd e6 8f d2 3d
       0.36907127 0.42676157 -0.103757866 0.10281353
000360 6e 95 82 3e de 39 dd 3e 65 14 0d be ba e8 6e 3d
       0.2550463 0.43208212 -0.13777311 0.058327414
000370 08 b4 dd be 6c f9 04 3f a5 af 13 be 50 e7 dd be
       -0.43301415 0.5194309 -0.14422472 -0.4334054
000380 40 c8 b8 bd 30 e8 ee be 84 71 92 bc 35 c6 9c 3e
       -0.0902257 -0.4666152 -0.017876394 0.3061997
000390 7e db 11 3e f5 af f8 3e 5c 02 98 3e 14 93 c2 3e
       0.14243886 0.48571745 0.296893 0.38002837
0003a0 7a ad 49 be 4a 14 5a 3f 42 8c e6 bd ae dc 95 be
       -0.19695082 0.8518721 -0.11257221 -0.29269928
0003b0 ff 70 2e 3e 95 2b a9 be 01 a3 88 be f9 a8 e3 3e
       0.17035292 -0.33041063 -0.26686862 0.44464853
0003c0 7c 52 e1 3d f1 89 05 be 24 53 8d be 79 f0 b3 3e
       0.11002061 -0.13040902 -0.27602494 0.35144404
0003d0 ec fe 7e bd f3 97 c2 3e 6f 99 b6 3e 66 10 08 3f
       -0.06225483 0.38006553 0.35663936 0.5315002
0003e0 e0 c7 61 3e 23 1a 71 bd 6f 80 5a 3e d7 6d 16 3e
       0.22048903 -0.058862817 0.21338056 0.14690338
0003f0 c0 01 1a 3b a6 31 b4 bd 33 5c 89 bd c2 31 bb bd
       0.0023499578 -0.08798532 -0.06707039 -0.0914035

l1.bias f4 [8]
000000 33 a8 0e 3f 55 bf 67 3f 43 db 1f 3f 49 ae d0 3e
       0.557254 0.90526325 0.6244394 0.4075797
000010 68 5b 10 3f e0 61 fa 3e 4a 9c ff 3e 51 22 27 3f
       0.56389475 0.48902798 0.49923927 0.6528674

l2.weight f4 [8, 8]
000000 6d 19 8b 3f 92 50 77 bf 8c 83 e6 bd 20 a2 68 3f
       1.0867134 -0.96607316 -0.11255559 0.90872383
000010 03 4c 03 3f 79 fb 4f 3e 9d c3 c6 3e aa c1 18 3e
       0.5128786 0.20310773 0.38821116 0.14917627
000020 1e e8 7c bf c7 64 3a 3f ae 9c 8a bf 0d 85 3c 3f
       -0.9879168 0.72810024 -1.0829065 0.7364052
000030 af ee 6f 3f 55 e3 e5 3b 63 01 2a 3f 14 5d 12 3f
       0.9372358 0.0070156255 0.66408366 0.57173276
000040 6a 46 dc 3e 4c b5 38 3f d3 b0 8e 3f 75 02 37 3f
       0.43022472 0.7215164 1.1147712 0.71488124
000050 65 7f 1e 3f 0f c9 e5 3e 5e ef 63 bf 3b 94 6e bf
       0.6191314 0.44879958 -0.8903712 -0.9319493
000060 d2 5b d1 bd 9e 8a 53 3f 80 33 c9 3e c9 c2 55 bf
       -0.102225915 0.8263339 0.39297104 -0.83500344
000070 2a 2a ca be c0 cb fd 3e d7 3a e6 3d fc 3f aa 3f
       -0.39485294 0.4956951 0.112416916 1.3300776
000080 47 d7 66 3e 97 69 82 3f af 58 23 3f a1 fe 52 bf
       0.2254306 1.0188473 0.63807195 -0.8241978
000090 c0 50 33 bf 1c 62 8e 3f b4 fb af be d6 a4 95 3f
       -0.7004509 1.1123691 -0.34371722 1.1690929
0000a0 73 fe 20 bd 22 5d 1d 3f bf 0f d1 be d2 ba fb 3d
       -0.03930516 0.61470234 -0.40832326 0.122914925
0000b0 03 8d 91 3f 80 66 9f bf 00 32 aa 3f 77 19 95 bd
       1.1371158 -1.2453156 1.3296509 -0.07280248
0000c0 db 67 85 3f 84 b2 45 bf 4f 74 2d 3f 7a 51 6a 3f
       1.0422319 -0.7722552 0.677556 0.91530573
0000d0 44 63 27 be 3c 81 d7 3e af 82 81 3e 61 a9 cf 3d
       -0.1634646 0.42090786 0.25295016 0.10139728
0000e0 e7 bc f3 3e 89 21 1a bf f4 a8 88 3a 2d 34 37 3f
       0.4760506 -0.6020742 0.0010426329 0.7156399
0000f0 4e e0 bb 3e 8a a8 64 bf 2f d6 b8 3e 8f 93 fb be
       0.36694568 -0.8931967 0.3610091 -0.49136016

l2.bias f4 [8]
000000 e8 70 ff 3c 8e 84 f8 3e c9 72 84 bd 58 5e 4a 3f
       0.031181768 0.4853863 -0.06467206 0.7905021
000010 a6 87 10 3f 01 83 31 3f 71 a4 f7 3e dc d6 bb 3e
       0.56456983 0.6934052 0.48367646 0.36687362

l3.weight f4 [7, 8]
000000 21 df 75 bf 49 6f 0a 3f 73 7a 0f 3f 15 3a 5d bf
       -0.9604359 0.5407606 0.5604622 -0.8641675
000010 36 9c 55 bf 81 0e da 3d c6 2a 21 bf fa f1 84 bf
       -0.83441484 0.10647298 -0.6295589 -1.0386345
000020 5f 2b 9f 3e 7a 0a 7c bf 49 9e 38 3f c9 26 5d bf
       0.31087777 -0.98453486 0.72116524 -0.86387306
000030 e3 d1 44 bf a7 45 14 bf 5e 3f 9e 3e 59 4f 8e 3b
       -0.7688276 -0.5791878 0.3090772 0.004342955
000040 b6 28 a0 bf 96 01 b5 3e fb f9 c5 bf c3 9d fd 3d
       -1.2512424 0.35352772 -1.5466913 0.12383606
000050 f6 5b 4f be e1 29 59 3f 7e c5 69 bf b5 03 5e bf
       -0.20249924 0.8482953 -0.91316974 -0.86724406
000060 f2 0d 4f bf 0d 8c 90 bf 5d 88 12 3f 24 46 44 3e
       -0.80880654 -1.129274 0.57239324 0.19167382
000070 61 c5 d0 3e d5 6c 54 bf 29 da b8 bd 5b 65 66 bf
       0.40775588 -0.82978565 -0.09025986 -0.89998406
000080 e5 a5 14 3f 41 06 5a bf 9c 22 9b bf d5 ed 7e bd
       0.58065635 -0.8516579 -1.2119937 -0.062238533
000090 e3 e8 21 3d a8 8f 6a bf cd 58 fd 3e f1 7b 85 bf
       0.03952874 -0.9162545 0.49481812 -1.0428449
0000a0 8e b1 08 bf 57 79 3b 3e 01 12 d3 bf 0d 3b c3 3e
       -0.53395927 0.18308006 -1.6489869 0.3813099
0000b0 6f 76 0d 3f c4 a0 95 bf 2e 22 95 bf c2 6f 12 bf
       0.5525884 -1.1689687 -1.1651056 -0.5720178
0000c0 24 7b 0c 3f 44 fd 2a bc 40 8a 47 bf c6 aa 40 bf
       0.548754 -0.01043636 -0.7794533 -0.7526058
0000d0 2c 68 57 bf 67 ce c5 3e 2e d9 c7 3b 94 bb a7 3e
       -0.8414333 0.38634035 0.006098888 0.32760298

l3.bias f4 [7]
000000 fb 0d ef bd 14 44 0c 3d c1 86 b8 3d 57 23 e6 3e
       -0.116725884 0.03424461 0.09010077 0.44948837
000010 ea 80 69 be e2 d3 69 3e e6 d1 b5 3e
       -0.22803083 0.22834733 0.35511702
